data.pth (torch, 22239 bytes, 6 tensors)

l1.weight f4 [8, 292]
000000 a2 9d e1 3d 91 3e 1a 3f f6 b2 22 3f 95 9d e5 3e
       0.11016394 0.6025172 0.6355432 0.44846788
000010 50 5a 01 bf 94 8e d0 3d 51 fc 9f bf f6 f0 25 3f
       -0.5052843 0.101834446 -1.2498876 0.648208
000020 03 95 c0 3f b3 d4 5a bd 5f 01 6b bf 66 0f fa 3e
       1.5045475 -0.053425502 -0.9179897 0.48839873
000030 ee 16 32 3f 39 99 b9 3e 52 6f 90 be 9c 2a a5 3d
       0.6956624 0.36249712 -0.2820993 0.08064768
000040 38 17 db 3f e0 aa ee be e2 c3 3b 3f b9 5d 41 bf
       1.7116461 -0.46614742 0.7334577 -0.75533634
000050 d4 d7 05 3f 5a 1c 67 3e 20 af 21 bf 77 52 c3 bc
       0.5228245 0.22569409 -0.63157845 -0.023843033
000060 54 65 22 3f a3 45 93 be fc fb 54 bc 67 92 cb bc
       0.63435864 -0.28764066 -0.012999531 -0.024850084
000070 64 94 c1 bf de d1 47 bf 28 66 73 be 2b b5 5c 3f
       -1.512341 -0.78054607 -0.23769438 0.8621394
000080 0b fc 02 40 c9 ce 0c 3f 40 61 38 3e 51 34 e6 3e
       2.0466335 0.5500303 0.18005848 0.4496179
000090 b1 55 5a bf ed a5 1b be ef dd ae bf e8 00 38 3e
       -0.85287005 -0.15200014 -1.3661479 0.17969096
0000a0 62 4c b6 3f 9a 06 90 bf e7 27 4a 3f 80 bb 36 3e
       1.424206 -1.1252015 0.78967136 0.17844963
0000b0 61 b2 ef 3d cd 31 48 bf 5a 58 5c bd 38 c5 9d 3f
       0.11703945 -0.7820099 -0.053795196 1.2325811
0000c0 be e7 a4 be 38 ff 9f 3e bc 0d a7 3e c8 cb f4 3c
       -0.32208055 0.31249404 0.32627666 0.029882327
0000d0 97 d7 7c bf c5 c5 b1 3f 38 31 00 3f 6b 15 ec 3e
       -0.98766464 1.388848 0.500751 0.4611009
0000e0 55 4c a5 bf 90 05 cf bf a2 18 0c 3e 59 e6 c7 3e
       -1.291392 -1.6173573 0.13681272 0.3904293
0000f0 16 c0 3e 3e e6 ce 22 3e c7 c0 34 bf fb e6 87 3d
       0.18627962 0.15899238 -0.70606655 0.06635853
000100 3c 57 78 3d e9 d0 ca 3d de 42 f5 be d5 5a 41 bf
       0.06063007 0.09903128 -0.47902578 -0.75529224
000110 34 51 08 bf da 2e 3f 3e 87 e1 dd 3f d5 ac 73 bf
       -0.53248906 0.18670216 1.733445 -0.95185596
000120 14 f0 cd bf df 44 3f 3f ba be 50 3f 0d 34 60 3f
       -1.6088891 0.74714464 0.81541026 0.87579423
000130 76 98 8e be d1 ca 0f be c5 44 5a 3f d0 7a 81 3e
       -0.27850693 -0.14042212 0.85261184 0.2528901
000140 8a 27 f0 bc 6d 74 f7 be ed 62 cb 3f 9a 5b 72 be
       -0.029315729 -0.48331013 1.5889565 -0.23667756
000150 5c b3 4d bf 3f 48 48 3f c1 3e a2 3e 2d 87 7b bf
       -0.80351806 0.7823524 0.31688502 -0.98253137
000160 c4 35 b4 bf 3f 2a 58 3f 5c f8 f9 3e f2 72 a5 3f
       -1.4078908 0.8443946 0.48822296 1.2925704
000170 7f 3e 5e bf 4f c9 dc 3e 01 7a 58 bd 67 46 90 be
       -0.8681411 0.43122336 -0.052850727 -0.28178713
000180 5b 4c 65 3f bd c7 cf be 00 e7 40 be e0 c2 32 be
       0.89569634 -0.40582076 -0.1883812 -0.17457151
000190 55 77 e9 3e 73 09 bc 3f f8 72 11 bf eb d3 8f 3d
       0.45598856 1.4690384 -0.56816053 0.07022842
0001a0 e3 09 aa 3f 06 06 75 3f 8b 38 c4 bf 01 6c b2 3f
       1.3284267 0.95712316 -1.5329756 1.393921
0001b0 e3 9a 8e be 54 6e 74 bf 7e 0f 8a 3f 2a 5e 05 bf
       -0.27852544 -0.9548085 1.0785978 -0.5209681
0001c0 a4 ad 6a 3f 7a 46 2a 3e f8 0c 85 3e 56 21 39 3f
       0.91671205 0.16628447 0.25986457 0.7231649
0001d0 e6 36 af 3f 52 c4 5d 3f a1 a2 bb 3f ed 48 61 3f
       1.3688629 0.86627686 1.4659005 0.880019
0001e0 cd 6e 98 3f 58 6c df 3e 4a f9 8d 3f 94 5c 13 3f
       1.1908814 0.43637347 1.1091702 0.5756314
0001f0 44 de 88 bf 89 5a 94 3f 95 b5 88 bf 3b 46 8d bf
       -1.069283 1.1590129 -1.0680414 -1.1037058
000200 63 6b ad 3f 36 5d 52 3f dc 4f 2e 3f 34 62 2e 3f
       1.3548397 0.8217348 0.68090606 0.68118596
000210 61 75 d7 3f 26 3e d5 3f d9 d1 39 3f 4a 11 35 3e
       1.6832696 1.6659591 0.7258583 0.17682377
000220 11 c2 a2 be 88 64 49 3e 9e 58 51 bf 90 0e 3d 3f
       -0.31788686 0.19667256 -0.81775844 0.73850346
000230 3e 18 4e bf 73 f3 bc 3f 65 27 bc bf 06 d4 86 be
       -0.8050574 1.4761795 -1.4699522 -0.26333636
000240 e7 49 5e 3c 24 c2 cb 3f 7a b6 29 3d 51 55 3f 3f
       0.013567424 1.5918622 0.04143379 0.7473956
000250 7f 49 09 3f 7f 17 26 bf 82 9f 2b 3f 73 9f ab 3f
       0.5362777 -0.648796 0.67040265 1.3408035
000260 75 d4 3c 3f 0b 4f 40 bf 5d 13 00 bd 1f d7 86 3f
       0.73761684 -0.7512061 -0.031268466 1.05344
000270 8a ee 2d 3f 2f df 9c 3f d0 79 35 3f 55 c2 c2 be
       0.67942107 1.225561 0.70888996 -0.3803889
000280 58 44 90 3f 55 fe 83 be fa e6 99 be 1b ca 34 3e
       1.1270857 -0.25779977 -0.30059034 0.17655222
000290 af 1a 54 be 77 97 3f 3f 59 5e 91 bf e7 eb 70 3e
       -0.20713304 0.7484049 -1.1356918 0.2352749
0002a0 12 3a 75 3f 74 64 7f be 3e 30 92 3f 8c 35 55 3f
       0.95791733 -0.24940664 1.1420972 0.8328483
0002b0 af ca 4c 3f dc 96 95 3f 0a f6 16 be 19 44 55 bd
       0.7999677 1.1686664 -0.14742294 -0.052066896
0002c0 1f c1 fc 3e 93 1a cb 3c eb da c6 3e 4d 5d 45 3f
       0.4936609 0.024792945 0.38838896 0.7709549
0002d0 42 54 f2 be af 82 71 be c5 25 aa be e6 d3 18 3f
       -0.4732991 -0.23585008 -0.3323194 0.5969833
0002e0 36 4c 1c be 5a 43 c9 3f fe dd 71 3f d2 3e 05 3f
       -0.15263447 1.5723679 0.9447936 0.5204898
0002f0 1c 6e 48 3f a0 95 2b be c6 0f a3 be 78 e4 22 3f
       0.78293014 -0.16756296 -0.31847972 0.63629866
000300 f0 05 b1 bd ee a2 6c be 14 e6 0c 3d 6b 2b 3f 3f
       -0.086437106 -0.23109028 0.034399107 0.74675626
000310 fe 01 a3 3f c7 13 79 3f c5 58 82 3e f3 fa 0c bf
       1.2734983 0.972958 0.2545835 -0.5507042
000320 58 74 b2 bf 2d 17 10 3f 7a c6 5e be e7 ad 00 bf
       -1.3941755 0.56285363 -0.217554 -0.50265354
000330 c2 c7 62 be 71 8e d5 bd 5b 07 c2 3e 35 65 e6 3f
       -0.22146514 -0.10427559 0.37896237 1.7999636
000340 29 bd ee 3e 66 37 7f bf f9 a0 cc bd 00 47 bb bd
       0.46628693 -0.99693906 -0.099916406 -0.091444016
000350 65 84 6c 3e 54 d0 0f bf 50 d5 ef bc a3 95 80 3d
       0.2309738 -0.5617726 -0.02927652 0.06278541
000360 8a bb 7e 3f dc fd 65 be 11 5a 9b bf c8 dd 2d be
       0.9950491 -0.22460121 -1.2136861 -0.16979134
000370 d6 5c 80 be 0d e1 2d 3d cf c4 cc 3e ec 67 30 be
       -0.25070828 0.042450953 0.39993903 -0.17227143
000380 8c 09 18 bf 7f 45 44 3f c2 59 c6 3f aa 81 76 3e
       -0.5938957 0.7666854 1.5496142 0.240729
000390 15 f2 6f 3f 8a 78 90 be 15 2f 3f 3f e0 70 cd bc
       0.9372876 -0.28216964 0.74681216 -0.025078237
0003a0 25 e6 17 3f 01 92 c2 bc f2 51 15 bf 64 81 6e be
       0.5933555 -0.02375126 -0.58328164 -0.23291546
0003b0 e5 9e 5a bf 40 ef a1 3f eb 9e 13 3e 20 9f 3c bf
       -0.85398704 1.2651138 0.14416091 -0.73680305
0003c0 19 89 0f bf cc d5 0b be 68 20 28 3f 94 c3 55 3e
       -0.5606857 -0.13655776 0.6567445 0.20875388
0003d0 56 20 b8 3d 74 01 0d 40 71 a3 c1 3f f0 e5 2d 3f
       0.089905426 2.2032137 1.5128003 0.6792898
0003e0 25 18 9b bf 45 75 28 bf 3e 2e a3 3f 16 4e 6e bd
       -1.2116743 -0.6580394 1.2748487 -0.058179937
0003f0 21 3a 52 3f e6 39 96 bd 00 39 72 bd 20 3e 72 3f
       0.8211995 -0.07335262 -0.05913639 0.94626045

l1.bias f4 [8]
000000 8c 1b e5 3f 7d f6 cb 3f 5e 5f 2a 40 a8 c0 3b 40
       1.7899032 1.5934597 2.6620708 2.9336338
000010 99 f6 88 3f 04 c0 29 40 3f 3d f2 3f 91 5e 23 40
       1.0700256 2.6523447 1.8924941 2.5526469

l2.weight f4 [8, 8]
000000 5f d0 1d 40 48 25 9a bf 0a 47 1e bf 31 f0 21 40
       2.465843 -1.2042627 -0.61827147 2.5302851
000010 78 58 e5 3f 00 7c 26 bf be cb 13 40 3c a9 2c 40
       1.7917624 -0.6503296 2.3093104 2.6978292
000020 df ba fd be e0 69 3f bf 2a c5 3e 40 20 53 74 40
       -0.49556634 -0.7477093 2.980784 3.8175735
000030 8e 30 8a bf 35 39 ea 3f 1d 1d 61 40 d3 53 90 bb
       -1.0796068 1.8298708 3.517402 -0.004404524
000040 97 9b 00 40 e4 41 97 40 f1 60 71 3f e6 17 0f 40
       2.0094965 4.7267933 0.94288546 2.2358336
000050 b9 17 cc bf 01 73 1f be 96 9a 78 3e b4 b6 35 40
       -1.594474 -0.15571214 0.2427772 2.8392763
000060 a8 bc aa bf 96 56 70 3f d8 ac 87 bf bd ac 31 40
       -1.3338823 0.9388212 -1.0599623 2.776168
000070 20 24 2b 3f 4f 7c 62 40 7e 79 9f be bc b2 32 40
       0.66852 3.5388372 -0.3114738 2.792159
000080 6d 7b 09 c0 04 16 51 40 0d 2b 4b 40 6f 83 da be
       -2.1481583 3.2669687 3.1745026 -0.426784
000090 42 af 81 40 b3 36 e2 3f 8f 66 28 3f 51 26 22 40
       4.052644 1.7672943 0.6578149 2.5335886
0000a0 12 51 2a 3f 0c ef 19 40 94 51 e8 3f 88 60 56 3f
       0.66529953 2.4052153 1.8149896 0.83741045
0000b0 31 86 06 40 ee cb b8 bf 50 74 4f 40 ee 42 17 40
       2.1019404 -1.4437234 3.2414742 2.36346
0000c0 8e 0d 30 40 b5 5b e2 bd f1 9d 97 bf e5 b9 0a bf
       2.7508273 -0.11052648 -1.1845075 -0.541899
0000d0 20 3d 90 3f 84 c2 a5 3f 7b 14 6b 40 18 6c 15 40
       1.1268654 1.2949986 3.673125 2.3347225
0000e0 ee 4a a1 40 9b f0 c8 3e 27 fc 87 40 cd 69 f7 3d
       5.0403967 0.39246067 4.2495303 0.12080727
0000f0 98 7e 56 3f 66 a9 7b 40 18 f3 8f bf 50 aa 99 3f
       0.83786917 3.9322143 -1.1246061 1.20051

l2.bias f4 [8]
000000 2b 30 82 3f 67 23 13 40 47 12 0f 40 22 70 b3 3f
       1.017095 2.2990358 2.2354906 1.4018595
000010 68 b5 fc 3e 3d 92 04 3f ec e2 b7 3e 2b cf 31 40
       0.49357152 0.5178564 0.35915315 2.7782695

l3.weight f4 [114, 8]
000000 cc ec 75 c0 d3 f9 88 be b1 d1 af 3d ab d4 1a 3e
       -3.842578 -0.267531 0.08584917 0.15120189
000010 c3 64 a0 bd bd 7d 61 c0 ba ab de 3e e4 e4 e1 3e
       -0.07831719 -3.5232995 0.43490392 0.44119942
000020 a9 3a 39 c0 a9 5d 0e be 00 da e9 3e 3d 59 0a bf
       -2.8942053 -0.13902916 0.45674133 -0.54042417
000030 b6 36 66 bf 18 84 c3 bf da f0 8e bf 63 49 a4 3e
       -0.8992723 -1.5274687 -1.1167252 0.3208724
000040 5d bf ce 3e cf 93 5a be 57 93 6b bf a4 dd 69 c0
       0.40380374 -0.21345447 -0.920217 -3.6541529
000050 c8 1e 6d bf 54 fc 42 be db 23 87 be 20 20 bb 3d
       -0.92625093 -0.19041568 -0.26394543 0.09136987
000060 65 6f 61 c0 c1 30 5a c0 de 3b 03 bf 52 ec a3 3e
       -3.522424 -3.4092257 -0.51263225 0.32016236
000070 9f 2f 21 3f 67 71 35 bf 8c c7 3a 3e be 77 a7 3e
       0.6296329 -0.70876163 0.18240184 0.32708544
000080 9a 8c b5 bf 09 6e 8c bf 64 e6 0b c0 18 83 d8 be
       -1.4183533 -1.097108 -2.185937 -0.42287517
000090 4a e8 67 be f4 7a a9 bf a7 75 a6 3e a0 b5 54 3f
       -0.22647205 -1.3240647 0.32511637 0.8308964
0000a0 6c e7 bb bf 8b 39 60 3f 2c f8 4b c0 63 bc c0 3e
       -1.4679999 0.87587804 -3.1870222 0.37643728
0000b0 ae 7a e4 3b 31 8f 16 c0 4a 1c 95 bf aa 3e bc 3e
       0.0069726324 -2.3524897 -1.1649258 0.3676656
0000c0 fa ed a3 3c 4e 44 22 3f b5 66 9a bf be 7c 8f bf
       0.020010937 0.63385475 -1.2062594 -1.1209943
0000d0 4a c3 41 c0 1c db 58 bf 3b 75 41 3d d4 03 33 3e
       -3.0275445 -0.84709334 0.04723094 0.17481929
0000e0 b9 62 53 be 75 8d 46 be 40 30 56 3e 23 22 03 bf
       -0.20643128 -0.19389899 0.20916843 -0.51223963
0000f0 b5 df 82 c0 48 a4 22 bf 47 39 c7 3e f2 2a f0 bd
       -4.089808 -0.63531923 0.38910887 -0.11726941
000100 53 c9 3c 3e b3 65 39 c0 58 a2 93 3e 40 04 14 c0
       0.18436174 -2.8968322 0.28834796 -2.3127594
000110 65 b8 8a bf 08 4e c8 bd 2a 8c 78 3d f8 a1 83 3e
       -1.0837523 -0.09780508 0.060680546 0.2570951
000120 b8 48 4f bf f2 f2 0f be 14 bc 30 bf 18 61 3a bf
       -0.80970335 -0.1405752 -0.69036984 -0.72804403
000130 32 9d 1e 3e 4b 1a 43 3d 6d 83 0d bf 30 a0 f8 bf
       0.15489653 0.047632497 -0.55278665 -1.9423885
000140 d2 be 7a 3e f3 af 3a 3d ec 77 af bf cc 46 ea 3e
       0.24486855 0.045577955 -1.3708472 0.4575714
000150 f2 c0 60 bf 02 6a 95 bc f6 8c 7a 3e 67 24 47 c0
       -0.8779441 -0.018239025 0.24467835 -3.1115968
000160 a4 c6 8b 3e 75 94 91 3e 50 3e 2a bd 70 3a 88 3d
       0.27299988 0.28433576 -0.041563332 0.06651771
000170 99 33 88 c0 74 ea be bd 7d d6 80 bf 6c a3 f9 be
       -4.2562985 -0.09322062 -1.0065457 -0.48757493
000180 02 95 92 bd 80 ff 58 be 12 2c a7 bf e8 0f 39 be
       -0.07157327 -0.21191216 -1.3060324 -0.18072474
000190 08 1f 78 3e da 30 de bc 4f 2d b7 3e 48 42 4c c0
       0.24230587 -0.027122904 0.35776755 -3.1915455
0001a0 81 db 05 be 71 12 34 3f bc fd 39 3d 4f 29 cd 3d
       -0.13072015 0.7034064 0.045407996 0.100176446
0001b0 4e b4 1c bf 0f 08 83 be 03 60 e7 be dd e0 84 c0
       -0.61212623 -0.25592086 -0.4519044 -4.152449
0001c0 a2 8f be be bb 23 39 be 95 98 22 bf 34 5d b2 3e
       -0.37218958 -0.18080036 -0.6351407 0.34836733
0001d0 ea c4 9d be 72 e9 e7 be 8e 4f fd be e3 46 0d c0
       -0.30814296 -0.45295292 -0.49474758 -2.2074516
0001e0 37 7f e0 be 79 6f 2c 3e e4 98 35 c0 bb 21 47 c0
       -0.43847057 0.16839398 -2.8374567 -3.1114337
0001f0 32 79 87 3c 9c d7 37 3e 21 1c 33 3e bb 1d 48 bd
       0.016537283 0.17953342 0.17491199 -0.04885648
000200 1e 7f 31 c0 88 e4 0a bf 55 87 47 3f 3a 0a 21 c0
       -2.7733836 -0.5425496 0.77940875 -2.5162492
000210 b4 a0 90 3d 48 c4 be 3e 1c c5 3b c0 53 82 70 be
       0.07061902 0.37259126 -2.9339056 -0.23487215
000220 4e 92 79 bf 41 13 68 bf c8 fb 83 3e 99 89 26 3f
       -0.9748887 -0.9065438 0.2577803 0.6505371
000230 3b 1b bd be 27 03 89 bf ba 49 bc bd 4c c9 fb bf
       -0.36934838 -1.0704087 -0.0919375 -1.9670806
000240 3a 1c 15 bf 92 b5 97 be 0f 2f 46 3f 59 5a e7 3e
       -0.58246195 -0.29630715 0.77415556 0.45186117
000250 fd e2 95 be ec 2f 70 3d 66 48 00 c0 df 22 55 c0
       -0.2927474 0.05863945 -2.0044188 -3.3302534
000260 12 db e3 be b4 1e 94 be 3b 6c 75 be 53 e7 f1 be
       -0.44503075 -0.28929675 -0.23967068 -0.472468
000270 ae e1 c1 bf 80 6d 4a bf 7c 7c ec be 3a 3b a3 be
       -1.5146997 -0.79073334 -0.46188724 -0.31881124
000280 8b 29 de 3e 0e 83 ab be 05 6b 13 3e 66 d5 89 3e
       0.4339107 -0.33498424 0.14396293 0.26920623
000290 77 e9 df bf f6 e7 6c c0 35 5d c2 3d 77 02 ff bd
       -1.7493123 -3.7016578 0.09490434 -0.12451642
0002a0 ec 0e b3 bf 58 27 80 bf e7 db de 3e 28 26 ff bf
       -1.3988929 -1.0012007 0.43527147 -1.9933519
0002b0 c8 1d 39 bf c4 aa 06 c0 72 bd 81 3e 94 d1 0d 3f
       -0.7231107 -2.1041727 0.25339848 0.55397916
0002c0 fc 59 72 bf 47 a7 49 3e 66 a4 0e 3f f7 02 0a be
       -0.94668555 0.19692717 0.557196 -0.13477693
0002d0 21 c4 02 c0 88 54 30 c0 4f eb 20 c0 43 b8 1a 3f
       -2.0432208 -2.7551594 -2.514362 0.6043741
0002e0 5a c2 19 c0 ab cb 1f c0 3d 15 6e 3e b3 2b 12 c0
       -2.4024873 -2.496806 0.2325029 -2.2839172
0002f0 98 d6 79 3f a6 c8 1e 3e 3f 6e 36 c0 0e 2e b6 3e
       0.9759307 0.15506229 -2.850479 0.35582012
000300 7d 01 1d bf dd d5 94 3c e0 93 6e bf b3 8a 34 c0
       -0.61330396 0.018168384 -0.9319439 -2.8209655
000310 81 27 d3 bf a5 b6 2c bf 71 d5 ba 3e 30 d2 07 3f
       -1.6496431 -0.67466193 0.36490968 0.53055096
000320 c4 35 05 c0 67 fe 36 3f 49 34 6b bf 7a 3e 38 c0
       -2.0814066 0.7148194 -0.91876656 -2.8788133
000330 d2 bb d4 be 85 ff 1f bf 0a ca 1b c0 10 44 25 3f
       -0.41549546 -0.62499267 -2.4342065 0.6455698
000340 38 fe b1 bf ae 77 1b 3e ea b4 68 c0 07 0e a2 be
       -1.3905706 0.15182373 -3.636042 -0.31651327
000350 ca 10 8e 3e 68 96 d7 be 46 95 89 be 50 e2 61 3d
       0.27747184 -0.42106938 -0.268717 0.05514747
000360 6d e8 7a 3e 2c e7 05 3a d1 b7 a2 bd 7c 4f 53 c0
       0.24502726 0.00051079947 -0.079452164 -3.3017263
000370 14 93 a1 bf 9a a4 5e 3e 85 89 3a bd 3d 7e 8a bf
       -1.262301 0.21742478 -0.045541305 -1.0819775
000380 aa ca 04 c0 2c 4d bc bf 04 a6 dc be a7 14 2f 3f
       -2.0748696 -1.4711051 -0.4309541 0.6839089
000390 6f 21 1c 3e 9f 95 c8 bf 3b d6 6b bb 08 bc d5 be
       0.15247129 -1.5670661 -0.0035985846 -0.4174502
0003a0 3e 79 65 bf 08 56 c0 3e 41 2d 1e bf 92 c7 08 3f
       -0.89638126 0.37565637 -0.617878 0.5342952
0003b0 50 3a 4b bf ab 2f fd bf 12 06 e2 bf bd 6f 90 be
       -0.7938585 -1.9780172 -1.7658103 -0.2821025
0003c0 98 11 be 3e 87 1b 37 3f 8b 5d 2d 3f 26 c6 0a c0
       0.37122798 0.7152638 0.6772086 -2.168344
0003d0 86 95 49 c0 7e be 16 3f de 5a a7 3e 59 d1 3e c0
       -3.1497512 0.5888442 0.32686514 -2.9815276
0003e0 eb 13 d5 bc ee 91 39 3f 37 a8 d1 be 1b 13 9c bf
       -0.026010474 0.72488296 -0.4094865 -1.219333
0003f0 4e b8 2c c0 cc c8 35 bf e2 9b 37 c0 a5 eb f9 3e
       -2.698749 -0.71009517 -2.8688893 0.48812595

l3.bias f4 [114]
000000 e5 ac 61 be 7b ae 4f 3e ce 38 f6 be c0 b9 e6 be
       -0.2203861 0.20281403 -0.48090214 -0.4506359
000010 1d 87 74 be f4 b0 bf bd a2 bf 82 be e4 21 d1 be
       -0.23879667 -0.09359923 -0.2553683 -0.4084617
000020 34 c5 95 bd 7e 52 53 be 54 6d 43 be e8 c3 b6 be
       -0.07313004 -0.20636937 -0.19084674 -0.3569634
000030 50 26 6c bf 7a 63 4d be 4b 69 a7 bd 59 93 c1 be
       -0.9224596 -0.20057479 -0.0817438 -0.3780773
000040 f5 38 95 3c d0 d0 61 be 20 33 c8 be 5e 5b 08 be
       0.018215636 -0.22052312 -0.39101505 -0.13316104
000050 53 6b 49 bf 99 03 c5 3e fb 62 40 be 25 7c 56 3f
       -0.7867939 0.38479307 -0.18787758 0.8378318
000060 33 ef 51 3e eb 3f 0b 3f 1e e2 fe 3c 46 da 69 3e
       0.20501404 0.54394406 0.03111368 0.22837171
000070 c7 fd 7a bc 59 14 d6 3d 1e 66 0a 3f 5a 46 0a 3f
       -0.015319294 0.104531 0.5406207 0.540136
000080 9d ad a8 bc 05 3a df 3e e9 2f 76 bf e2 53 e9 3d
       -0.020590598 0.43598953 -0.96166855 0.113929525
000090 5f f2 13 3d 87 a5 1a 3e bd ba 3d be 00 f9 5d 3d
       0.036119815 0.15102206 -0.18528266 0.054192543
0000a0 43 98 33 bf 83 54 90 be 05 61 f2 be b0 44 47 3f
       -0.7015421 -0.28189477 -0.47339645 0.77839184
0000b0 72 db c0 be 83 84 17 bf 60 21 db be af 67 2c bf
       -0.37667423 -0.5918657 -0.427989 -0.6734571
0000c0 96 b1 48 bf 34 7b 2c bf ae 38 b9 3e 0c 81 5a bf
       -0.78395975 -0.67375493 0.36176056 -0.8535316
0000d0 85 33 19 be e5 c6 65 3d ed ce 00 3e c2 c9 ca bd
       -0.1496106 0.056097884 0.12578936 -0.099017635
0000e0 7f eb 09 3f 03 35 0c 3f dc 08 42 3d 7a 53 88 bc
       0.53874964 0.5476839 0.04737173 -0.016641367
0000f0 68 58 23 3f 16 20 56 3f 72 77 49 3f e3 f6 07 bf
       0.6380677 0.8364271 0.78697884 -0.53111094
000100 6a e3 bc be 0a 42 b4 3e e2 4f f4 bd de 72 69 bd
       -0.36892253 0.35206634 -0.11929299 -0.05699431
000110 61 73 0c bd 69 df de 3e 3a ed 26 3f 56 13 a6 3d
       -0.03428972 0.43529823 0.6520573 0.08109157
000120 71 25 12 bb 94 3a 9c 3e f0 03 18 3f 3a 10 b4 be
       -0.002230015 0.30513442 0.5938101 -0.3516863
000130 5d 0b 8a 3c 58 8e 80 3e 91 38 a8 be a9 6f e2 be
       0.016851122 0.251086 -0.32855657 -0.44225815
000140 21 20 8c bd 62 d8 a2 be e8 cf bd bd 8c 63 a3 be
       -0.068420656 -0.31805712 -0.092681706 -0.31911886
000150 70 22 36 bf 2f 6d c9 be c9 4b b7 be ad 60 bd be
       -0.711463 -0.39341113 -0.35800007 -0.3698782
000160 d0 c7 f7 3e da f2 a7 be e6 bb 62 3d f7 a9 8d be
       0.48394632 -0.3280247 0.055354975 -0.27668735
000170 d8 77 24 3d 45 f6 7a be 71 f3 d1 3e 56 16 0c 3d
       0.040153354 -0.24508007 0.41006044 0.03420099
000180 b3 e0 35 bd f1 be 5b bf 24 1d 2e be 85 db 89 bd
       -0.044403743 -0.8583823 -0.17003304 -0.06731323
000190 1b cc 01 3f c8 22 dc 3e 4a dd ca be 3c 9b 2e be
       0.50702065 0.42995286 -0.39621955 -0.17051405
0001a0 10 4f 04 bf 8b 16 42 bf 65 96 bf be 17 c8 ae bb
       -0.5168314 -0.7581565 -0.3741943 -0.005333911
0001b0 a4 f7 48 be 83 a9 db bf 19 0b 38 bf 88 25 05 3f
       -0.19625717 -1.7161106 -0.71891934 0.52010393
0001c0 66 28 c5 3e 75 0e 7c 3e
       0.38507384 0.2461489
